module attributes {llvm.data_layout = "e-m:e-p270:32:32-p271:32:32-p272:64:64-i64:64-i128:128-f80:128-n8:16:32:64-S128", llvm.target_triple = "x86_64-unknown-linux-gnu", "onnx-mlir.symbol-postfix" = "mnist-12-int8"} {
  func.func @main_graph(%arg0: tensor<1x1x28x28xf32>) -> tensor<1x10xf32> {
    %0 = "harx.Quantization"(%arg0) {offset = 0 : ui8, scale = 1.000000e+00 : f32} : (tensor<1x1x28x28xf32>) -> tensor<1x1x28x28xui8>
    %1 = "harx.Constant"() {value = dense<"…"> : tensor<8x1x5x5xui8>} : () -> tensor<8x1x5x5xui8>
    %2 = "harx.Constant"() {value = dense<[107, 30, 139, 123, 115, 104, 132, 100]> : tensor<8xui8>} : () -> tensor<8xui8>
    %3 = "harx.Constant"() {value = dense<0> : tensor<8xsi32>} : () -> tensor<8xsi32>
    %4 = "harx.ConvolutionShift"(%0, %1, %3, %2) {do_bias = 1 : ui8, do_relu = 0 : ui8, pad_size = 2 : ui8, stride_size = 1 : ui8} : (tensor<1x1x28x28xui8>, tensor<8x1x5x5xui8>, tensor<8xsi32>, tensor<8xui8>) -> tensor<1x8x28x28xui8>
    %5 = "harx.MaxPool"(%4) {kernel_height = 2 : ui8, kernel_width = 2 : ui8, pad_size = 0 : ui8, stride_size = 2 : ui8} : (tensor<1x8x28x28xui8>) -> tensor<1x8x14x14xui8>
    %6 = "harx.Constant"() {value = dense<"…"> : tensor<16x8x5x5xui8>} : () -> tensor<16x8x5x5xui8>
    %7 = "harx.Constant"() {value = dense<[121, 118, 117, 110, 112, 110, 118, 108, 110, 107, 120, 128, 126, 102, 111, 124]> : tensor<16xui8>} : () -> tensor<16xui8>
    %8 = "harx.Constant"() {value = dense<0> : tensor<16xsi32>} : () -> tensor<16xsi32>
    %9 = "harx.ConvolutionShift"(%5, %6, %8, %7) {do_bias = 1 : ui8, do_relu = 0 : ui8, pad_size = 2 : ui8, stride_size = 1 : ui8} : (tensor<1x8x14x14xui8>, tensor<16x8x5x5xui8>, tensor<16xsi32>, tensor<16xui8>) -> tensor<1x16x14x14xui8>
    %10 = "harx.MaxPool"(%9) {kernel_height = 3 : ui8, kernel_width = 3 : ui8, pad_size = 0 : ui8, stride_size = 3 : ui8} : (tensor<1x16x14x14xui8>) -> tensor<1x16x4x4xui8>
    %11 = "harx.Constant"() {value = dense<[0, 3, 1, 2]> : tensor<4xsi32>} : () -> tensor<4xsi32>
    %12 = "harx.Constant"() {value = dense<[1, 4, 16, 4]> : tensor<4xsi32>} : () -> tensor<4xsi32>
    %13 = "harx.Transpose"(%10, %11, %12) : (tensor<1x16x4x4xui8>, tensor<4xsi32>, tensor<4xsi32>) -> tensor<1x256xui8>
    %14 = "harx.Constant"() {value = dense<[[78, -128, -70, -106, 0, -1, 68, 74, -54, 69]]> : tensor<1x10xsi32>} : () -> tensor<1x10xsi32>
    %15 = "harx.Constant"() {value = dense<[[78, -128, -70, -106, 0, -1, 68, 74, -54, 69]]> : tensor<1x10xsi32>} : () -> tensor<1x10xsi32>
    %16 = "harx.Constant"() {value = dense<"…"> : tensor<256x10xui8>} : () -> tensor<256x10xui8>
    %17 = "harx.MatMul"(%13, %16, %14, %15) {do_bias = 1 : ui8, output_offset = 112 : i32} : (tensor<1x256xui8>, tensor<256x10xui8>, tensor<1x10xsi32>, tensor<1x10xsi32>) -> tensor<1x10xui8>
    %18 = "harx.Dequantization"(%17) {channel_size = 1 : i32, offset = 112 : ui8, scale = 59.9307365 : f32, use_stride = 0 : ui8} : (tensor<1x10xui8>) -> tensor<1x10xf32>
    return %18 : tensor<1x10xf32>
  }
}

