module attributes {llvm.data_layout = "e-m:e-p270:32:32-p271:32:32-p272:64:64-i64:64-i128:128-f80:128-n8:16:32:64-S128", llvm.target_triple = "x86_64-unknown-linux-gnu", "onnx-mlir.accels" = ["ARX-0x0"], "onnx-mlir.symbol-postfix" = "kicjmc8jufyvxjsbx3lhr37c3meffr.mlir"} {
  func.func @main_graph(%arg0: tensor<1x1x28x28xf32> {onnx.name = "Input3"}) -> (tensor<1x10xf32> {onnx.name = "Plus214_Output_0"}) {
    %0 = onnx.Constant dense<[1, 256]> : tensor<2xi64>
    %1 = onnx.Constant dense<0> : tensor<ui8>
    %2 = onnx.Constant dense<9.88613319> : tensor<f32>
    %3 = onnx.Constant dense<"…"> : tensor<256x10xi8>
    %4 = onnx.Constant dense<[0.00588615332, 0.00455630198, 0.00606494211, 0.00460023107, 0.00608415436, 0.00537331169, 0.00578121096, 0.00587523915, 0.00933961383, 0.00598042784]> : tensor<10xf32>
    %5 = onnx.Constant dense<0> : tensor<10xi8>
    %6 = onnx.Constant dense<112> : tensor<ui8>
    %7 = onnx.Constant dense<59.931015> : tensor<f32>
    %8 = onnx.Constant dense<112> : tensor<ui8>
    %9 = onnx.Constant dense<59.9307365> : tensor<f32>
    %10 = onnx.Constant dense<[[78, 128, 186, 150, 0, 255, 68, 74, 202, 69]]> : tensor<1x10xui8>
    %11 = onnx.Constant dense<0.00104560156> : tensor<f32>
    %12 = onnx.Constant dense<121> : tensor<ui8>
    %13 = onnx.Constant dense<0> : tensor<ui8>
    %14 = onnx.Constant dense<1.000000e+00> : tensor<f32>
    %15 = onnx.Constant dense<"…"> : tensor<8x1x5x5xi8>
    %16 = onnx.Constant dense<[0.00802334305, 0.0044698948, 0.00765890721, 0.00375403836, 0.00538003072, 0.00577386562, 0.0044053914, 0.00446567498]> : tensor<8xf32>
    %17 = onnx.Constant dense<0> : tensor<8xi8>
    %18 = onnx.Constant dense<0> : tensor<ui8>
    %19 = onnx.Constant dense<3.67960572> : tensor<f32>
    %20 = onnx.Constant dense<[-20, -97, 12, -4, -12, -23, 5, -27]> : tensor<8xi32>
    %21 = onnx.Constant dense<0> : tensor<ui8>
    %22 = onnx.Constant dense<3.67960572> : tensor<f32>
    %23 = onnx.Constant dense<"…"> : tensor<16x8x5x5xi8>
    %24 = onnx.Constant dense<[… > : tensor<16xf32>
    %25 = onnx.Constant dense<0> : tensor<16xi8>
    %26 = onnx.Constant dense<0> : tensor<ui8>
    %27 = onnx.Constant dense<9.88613319> : tensor<f32>
    %28 = onnx.Constant dense<[-6, -9, -10, -17, -15, -17, -9, -19, -17, -20, -7, 1, -1, -25, -16, -3]> : tensor<16xi32>
    %29 = "onnx.QuantizeLinear"(%arg0, %14, %13) {axis = 1 : si64, onnx_node_name = "Input3_Convolution28_QuantizeLinear", saturate = 1 : si64} : (tensor<1x1x28x28xf32>, tensor<f32>, tensor<ui8>) -> tensor<1x1x28x28xui8>
    %30 = "onnx.QLinearConv"(%29, %14, %13, %15, %16, %17, %19, %18, %20) {auto_pad = "SAME_UPPER", dilations = [1, 1], group = 1 : si64, kernel_shape = [5, 5], onnx_node_name = "Convolution28_quant", strides = [1, 1]} : (tensor<1x1x28x28xui8>, tensor<f32>, tensor<ui8>, tensor<8x1x5x5xi8>, tensor<8xf32>, tensor<8xi8>, tensor<f32>, tensor<ui8>, tensor<8xi32>) -> tensor<1x8x28x28xui8>
    %31 = "onnx.MaxPoolSingleOut"(%30) {auto_pad = "NOTSET", ceil_mode = 0 : si64, kernel_shape = [2, 2], onnx_node_name = "Pooling66_quant", pads = [0, 0, 0, 0], storage_order = 0 : si64, strides = [2, 2]} : (tensor<1x8x28x28xui8>) -> tensor<1x8x14x14xui8>
    %32 = "onnx.QLinearConv"(%31, %22, %21, %23, %24, %25, %27, %26, %28) {auto_pad = "SAME_UPPER", dilations = [1, 1], group = 1 : si64, kernel_shape = [5, 5], onnx_node_name = "Convolution110_quant", strides = [1, 1]} : (tensor<1x8x14x14xui8>, tensor<f32>, tensor<ui8>, tensor<16x8x5x5xi8>, tensor<16xf32>, tensor<16xi8>, tensor<f32>, tensor<ui8>, tensor<16xi32>) -> tensor<1x16x14x14xui8>
    %33 = "onnx.DequantizeLinear"(%32, %27, %26) {axis = 1 : si64, onnx_node_name = "Convolution110_DequantizeLinear_0"} : (tensor<1x16x14x14xui8>, tensor<f32>, tensor<ui8>) -> tensor<1x16x14x14xf32>
    %34 = "onnx.MaxPoolSingleOut"(%33) {auto_pad = "NOTSET", ceil_mode = 0 : si64, kernel_shape = [3, 3], onnx_node_name = "Pooling160", pads = [0, 0, 0, 0], storage_order = 0 : si64, strides = [3, 3]} : (tensor<1x16x14x14xf32>) -> tensor<1x16x4x4xf32>
    %35 = "onnx.Reshape"(%34, %0) {allowzero = 0 : si64, onnx_node_name = "Times212_reshape0"} : (tensor<1x16x4x4xf32>, tensor<2xi64>) -> tensor<1x256xf32>
    %36 = "onnx.QuantizeLinear"(%35, %2, %1) {axis = 1 : si64, onnx_node_name = "Pooling160_Output_0_reshape0_gemm_MatMul_QuantizeLinear", saturate = 1 : si64} : (tensor<1x256xf32>, tensor<f32>, tensor<ui8>) -> tensor<1x256xui8>
    %37 = "onnx.QLinearMatMul"(%36, %2, %1, %3, %4, %5, %7, %6) {onnx_node_name = "gemm_MatMul_quant"} : (tensor<1x256xui8>, tensor<f32>, tensor<ui8>, tensor<256x10xi8>, tensor<10xf32>, tensor<10xi8>, tensor<f32>, tensor<ui8>) -> tensor<1x10xui8>
    %38 = "onnx.Custom"(%37, %7, %6, %10, %11, %12, %9, %8) {domain_name = "com.microsoft", function_name = "QLinearAdd", onnx_node_name = "gemm_Add_quant"} : (tensor<1x10xui8>, tensor<f32>, tensor<ui8>, tensor<1x10xui8>, tensor<f32>, tensor<ui8>, tensor<f32>, tensor<ui8>) -> tensor<*xui8>
    %39 = "onnx.DequantizeLinear"(%38, %9, %8) {axis = 1 : si64, onnx_node_name = "Plus214_Output_0_DequantizeLinear_0"} : (tensor<*xui8>, tensor<f32>, tensor<ui8>) -> tensor<1x10xf32>
    return %39 : tensor<1x10xf32>
  }
  "onnx.EntryPoint"() {func = @main_graph} : () -> ()
}
